training_/tomatoes.tflite (tflite, 730784 bytes, 18 tensors)

dense_2/bias f4 [10]
-0.05373378 0.017681664 0.020946275 0.13270988 -0.07132794 0.088280044 0.16664658 -0.11008548
-0.189569 -0.08856778
00000000: f417 5cbd 23d9 903c 8697 ab3c 19e5 073e
00000010: 6214 92bd 2bcc b43d 67a5 2a3e 7f74 e1bd
00000020: 601e 42be 0663 b5bd

dense_1/bias f4 [64]
0.18694547 -0.030107994 0.039759252 0.2449321 0.017568406 -0.09754525 0.16819653 0.32304925
0.06839151 0.21235146 -0.10773495 0.096725374 -0.042092595 0.013263776 0.07882417 0.029828373
0.09184458 0.027069062 -0.03412197 -0.11537855 -0.04289346 -0.0016137296 0.016127925 0.08432685
0.19497527 0.07240461 0.11632792 0.10619503 -0.12216347 -0.0107922675 0.09888248 0.07972443
-0.105746984 -0.09052389 0.07765345 -0.03207688 -0.09618264 -0.042676944 -0.037589278 -0.061934788
-0.074898034 0.19464919 -0.01596951 0.13994712 -0.09021462 -0.13663137 -0.006530808 -0.0796521
-0.03606961 0.01443549 0.10879302 0.047940686 0.19798763 -0.027885133 0.23748356 0.094841726
-0.007880994 0.06588635 -0.051241595 -0.058754746 0.08236225 0.033441395 0.13374881 0.060187846
00000000: a26e 3f3e 0aa5 f6bc 99da 223d 7bcf 7a3e
00000010: 9eeb 8f3c cec5 c7bd b63b 2c3e b666 a53e
00000020: d910 8c3d a972 593e 24a4 dcbd f417 c63d
00000030: 4969 2cbd 4f50 593c 916e a13d a25a f43c
00000040: 0319 bc3d f0bf dd3c 7bc3 0bbd 974b ecbd
00000050: 0db1 2fbd c883 d3ba b61e 843c 8eb3 ac3d
00000060: 99a7 473e de48 943d 553d ee3d c87c d93d
00000070: d730 fabd 0dd2 30bc e682 ca3d 9046 a33d
00000080: e091 d8bd 9764 b9bd c608 9f3d 0c63 03bd
00000090: 67fb c4bd 05ce 2ebd 37f7 19bd 55af 7dbd
000000a0: 2464 99bd 1e52 473e 7dd2 82bc 4c4e 0f3e
000000b0: 71c2 b8bd 18e9 0bbe 6300 d6bb a420 a3bd
000000c0: babd 13bd d582 6c3c e0ce de3d 745d 443d
000000d0: 45bd 4a3e 5d6f e4bc e42e 733e 613c c23d
000000e0: 491f 01bc 6cef 863d b5e2 51bd d1a8 70bd
000000f0: 8aad a83d d8f9 083d 73f5 083e 8887 763d

dense/bias f4 [128]
0.14180674 -0.08101683 -0.09120367 0.06597314 -0.036279246 -0.029055826 0.23704195 0.07195867
-0.028212847 -0.05733153 -0.043440394 -0.00959888 0.016922323 0.037767176 0.06750556 -0.06525254
0.012137467 0.17097452 -0.04821292 -0.09544154 0.0003014658 -0.003698787 0.0035550278 0.05119792
0.058671553 0.016155705 -0.03011202 -0.04695009 0.11262572 -0.040352862 0.0879028 0.026423186
0.12447433 -0.012851784 -0.18470396 0.033494473 0.15072945 -0.0122098625 -0.035314184 0.07562814
-0.05056591 -0.006621164 0.07901337 0.12633984 -0.09515252 0.20517929 0.105199 0.079043075
0.0042264815 -0.0054069315 0.08086452 -0.041658465 -0.06632599 -0.025541127 0.05127158 -0.002304658
0.021922022 0.08319362 0.14069465 0.05533453 -0.0065104314 0.004601186 0.14217968 -0.052778583
-0.049160823 -0.045946673 0.056868434 0.1279457 -0.026104534 -0.019187942 -0.03079048 0.098531336
0.08959089 -0.09442713 -0.044024196 0.042889565 -0.02633295 0.15657936 0.20659243 -0.047384087
-0.0046134274 0.11264493 -0.086222224 0.06306644 0.011078559 0.08807848 0.03934122 0.0437588
0.008882548 -0.046053737 -0.019984163 0.070060536 0.08842433 -0.02191005 -0.01394097 -0.030076278
0.030951625 0.017888164 -0.048381556 -0.00802286 -0.030084021 -0.033023853 0.015528741 0.09461728
-0.033948023 0.053876918 0.10370995 0.23470284 0.070741124 -0.07112829 -0.17189422 -0.06570719
-0.034142204 0.11831316 0.007880074 -0.033401053 0.024408413 0.039927766 -0.07068436 -0.01860504
-0.11627155 0.06798233 -0.022194149 0.06358485 0.0059868162 0.08996197 0.06544421 0.2153082
00000000: c935 113e 27ec a5bd fdc8 babd ed1c 873d
00000010: 8c99 14bd 7c06 eebc 20bb 723e 115f 933d
00000020: a11e e7bc 77d4 6abd 8eee 31bd 9f44 1dbc
00000030: afa0 8a3c c1b1 1a3d 5b40 8a3d 20a3 85bd
00000040: 3adc 463c f213 2f3e e97a 45bd db76 c3bd
00000050: 0e0e 9e39 5967 72bb 78fb 683b e9b4 513d
00000060: 9551 703d f858 843c 7cad f6bc bd4e 40bd
00000070: 50a8 e63d 0b49 25bd 6206 b43d 7075 d83c
00000080: 66ec fe3d 4a90 52bc 0923 3dbe 8031 093d
00000090: d258 1a3e e00b 48bc 9ba5 10bd ede2 9a3d
000000a0: 331e 4fbd 59f6 d8bb c3d1 a13d 3b5f 013e
000000b0: 53df c2bd 851a 523e 9372 d73d 56e1 a13d
000000c0: 4c7e 8a3b a12c b1bb 4c9c a53d 11a2 2abd
000000d0: ecd5 87bd a03b d1bc 2602 523d bf09 17bb
000000e0: d095 b33c 6b61 aa3d 4212 103e 76a6 623d
000000f0: 7555 d5bb 8cc5 963b 8d97 113e 5b2e 58bd
00000100: dc5c 49bd 9432 3cbd e0ee 683d 3304 033e
00000110: 2dd9 d5bc 0830 9dbc 513c fcbc ccca c93d
00000120: 6e7b b73d 0363 c1bd b752 34bd f8ac 2f3d
00000130: 33b8 d7bc 5756 203e f78c 533e d115 42bd
00000140: 3c2c 97bb 63b2 e63d 4795 b0bd fa28 813d
00000150: d882 353c 7d62 b43d 4224 213d 6d3c 333d
00000160: 1b88 113c d8a2 3cbd d4b5 a3bc e67b 8f3d
00000170: d117 b53d b57c b3bc ab68 64bc 8762 f6bc
00000180: 438e fd3c 338a 923c bd2b 46bd 5072 03bc
00000190: c472 f6bc 0544 07bd 436c 7e3c b4c6 c13d
000001a0: 150d 0bbd 0bae 5c3d e265 d43d f155 703e
000001b0: b9e0 903d b5ab 91bd 0a05 30be 7e91 86bd
000001c0: b2d8 0bbd 2c4e f23d 6d1b 013c 8bcf 08bd
000001d0: 27f4 c73c 4c8b 233d f6c2 90bd 9969 98bc
000001e0: c71f eebd 523a 8b3d 81d0 b5bc c638 823d
000001f0: 0e2d c43b fb3d b83d 9d07 863d c179 5c3e

conv2d_5/bias f4 [64]
0.24035424 -0.016821537 0.002651663 0.13290158 0.13124524 -0.020971516 -0.039930895 -0.14376347
-0.04385368 -0.010987597 -0.012543796 -0.04522083 -0.102598466 -0.10145423 0.09980197 -0.024682296
-0.15446365 -0.1354274 -0.09910609 0.046372063 -0.042106673 0.12610999 0.022744332 -0.025346717
-0.038862947 -0.10327809 -0.022072867 0.051955 0.070177846 -0.02712458 -0.011808699 0.0866619
0.10970844 -0.05711884 -0.10931076 0.017060816 0.09787995 0.20390141 -0.111762434 -0.06166146
0.084207706 -0.07138226 -0.121488556 -0.10202995 -0.09628368 -0.13676493 -0.1640577 0.08870037
0.11413327 -0.034704003 0.062493544 0.0803794 -0.10793146 -0.095227376 0.118214734 0.029226419
-0.080562666 -0.07690271 -0.036035895 0.15981868 0.020054042 -0.007307241 -0.085194245 0.15762432
00000000: 6c1f 763e 52cd 89bc 86c7 2d3b 5a17 083e
00000010: 2765 063e 75cc abbc 948e 23bd bb36 13be
00000020: eb9f 33bd 5205 34bc 7e84 4dbc 7a39 39bd
00000030: 251f d2bd 3cc7 cfbd fa64 cc3d 8732 cabc
00000040: b82b 1ebe 7bad 0abe 22f8 cabd a2f0 3d3d
00000050: 0c78 2cbd fa22 013e 5252 ba3c eba3 cfbc
00000060: c12e 1fbd 7783 d3bd 28d2 b4bc c4ce 543d
00000070: 67b9 8f3d 5e34 debc 4679 41bc cb7b b13d
00000080: d2ae e03d 72f5 69bd 52de dfbd 20c3 8b3c
00000090: 4975 c83d 88cb 503e b4e3 e4bd ba90 7cbd
000000a0: 1775 ac3d dd30 92bd fece f8bd 14f5 d0bd
000000b0: 6130 c5bd 1b0c 0cbe befe 27be 8aa8 b53d
000000c0: b4be e93d c925 0ebd 3bf9 7f3d f49d a43d
000000d0: 2b0b ddbd 9206 c3bd 911a f23d 3e6c ef3c
000000e0: 0afe a4bd 2b7f 9dbd 609a 13bd 82a7 233e
000000f0: 6048 a43c 9571 efbb 527a aebd 4568 213e

conv2d_4/bias f4 [64]
-0.15432014 0.11548682 -0.018720988 0.14091304 -0.038266324 0.21669161 -0.012234706 0.16688327
-0.012661225 0.003348203 -0.07498692 -0.107435174 0.029930731 0.0011305134 -0.03354422 -0.02276843
0.1654173 -0.0005188764 -0.07281852 0.009276807 0.050754588 0.08310272 -0.053610384 -0.016116697
0.11474296 0.042902187 0.051097326 -0.05885076 -0.10355368 -0.0014321841 0.06372041 -0.0405218
-0.03234507 0.00024354557 0.005343379 0.02769801 -0.039280858 0.2162849 -0.06261918 -0.09736665
0.032091007 0.12774119 -0.043409307 -0.044624377 -0.053076364 -0.008819649 -0.1078747 -0.040234722
0.07923354 -0.12378517 -0.06530339 -0.08497667 -0.044563115 0.17826629 -0.00966643 -0.07172596
-0.11669164 0.11214801 0.047777683 -0.04832504 -0.078005806 0.043074183 0.04681593 -0.047344625
00000000: 1906 1ebe 5b84 ec3d c25c 99bc 824b 103e
00000010: 26bd 1cbd 68e4 5d3e 1474 48bc 73e3 2a3e
00000020: 0771 4fbc 866d 5b3b be92 99bd f906 dcbd
00000030: 4b31 f53c bc2d 943a aa65 09bd dc84 babc
00000040: 2763 293e 3505 08ba e021 95bd c0fd 173c
00000050: 0be4 4f3d c231 aa3d 9096 5bbd 2a07 84bc
00000060: 5bfe ea3d 34ba 2f3d 6e4b 513d 7f0d 71bd
00000070: f413 d4bd 20b8 bbba d97f 823d 30fa 25bd
00000080: 447c 04bd 4460 7f39 8317 af3b f0e6 e23c
00000090: f7e4 20bd ca79 5d3e 7c3e 80bd 2b68 c7bd
000000a0: dc71 033d 96ce 023e f5cd 31bd 0dc8 36bd
000000b0: 9a66 59bd 4a80 10bc 69ed dcbd 2acd 24bd
000000c0: 3245 a23d 1483 fdbd c9bd 85bd 4008 aebd
000000d0: d087 36bd 708b 363e f25f 1ebc 0fe5 92bd
000000e0: 07fc eebd dbad e53d 88b2 433d 7af0 45bd
000000f0: 82c1 9fbd 8e6e 303d 10c2 3f3d 70ec 41bd

conv2d_3/bias f4 [64]
-0.059664655 -0.10894372 -0.070986494 -0.04984723 -0.018266866 -0.08600583 0.015627125 0.061972536
0.00441728 -0.022709245 -0.13788436 -0.03814614 0.0713395 -0.040811583 0.016195009 0.03424415
-0.08572496 -0.1859842 -0.044945057 0.043580722 -0.06905385 -0.110334516 -0.17200737 -0.14656685
-0.03310318 -0.023677325 -0.0730586 -0.009700096 -0.09944225 -0.07540084 -0.022880115 0.006307237
0.07170837 -0.022677109 -0.006516149 0.21705247 -0.10317535 -0.07243645 -0.016417373 -0.035003513
-0.03972427 -0.039139267 0.02528246 -0.075086445 -0.17321765 -0.071920775 0.028299201 -0.13004631
-0.08140287 0.01002124 0.09247577 -0.0651878 0.041528665 -0.0711771 0.013115994 0.019220931
-0.08208093 -0.0936178 0.19662829 -0.041727662 -0.03307344 -0.0087635 -0.056423735 0.12058682
00000000: ed62 74bd e31d dfbd 5e61 91bd 9c2c 4cbd
00000010: 65a4 95bc d323 b0bd 7504 803c ead6 7d3d
00000020: d5be 903b bd08 babc 8f31 0dbe 203f 1cbd
00000030: 721a 923d 0c2a 27bd 65ab 843c 9843 0c3d
00000040: 9190 afbd a472 3ebe 4f18 38bd b381 323d
00000050: 1b6c 8dbd 10f7 e1bd b322 30be 9f15 16be
00000060: 3397 07bd f3f6 c1bc bf9f 95bd 27ed 1ebc
00000070: 61a8 cbbd c16b 9abd 146f bbbc f0ac ce3b
00000080: d6db 923d 58c5 b9bc 6b85 d5bb 0143 5e3e
00000090: 994d d3bd 9059 94bd ba7d 86bc d85f 0fbd
000000a0: ebb5 22bd 7f50 20bd 291d cf3c ecc6 99bd
000000b0: f85f 31be 334b 93bd bad3 e73c dc2a 05be
000000c0: 8cb6 a6bd 2130 243c f063 bd3d 2e81 85bd
000000d0: f619 2a3d 4dc5 91bd 77e4 563c 3775 9d3c
000000e0: 0c1a a8bd b0ba bfbd ed58 493e a0ea 2abd
000000f0: 0478 07bd c894 0fbc 931c 67bd 39f6 f63d

conv2d_2/bias f4 [64]
-0.008809819 -0.025177708 -0.08269115 0.03396858 -0.09389658 -0.14424832 0.021926038 -0.07454255
-0.007455257 0.020016175 -0.044849597 -0.015764646 0.0011677593 -0.043457627 0.014094331 -0.15036488
-0.09069769 -0.051222958 -0.020812683 -0.0096796015 -0.014438781 -0.035305854 0.051238813 -0.026354857
-0.026725361 -0.0338806 -0.021763587 -0.109285936 -0.05987804 -0.054161936 -0.11956633 -0.044707287
-0.08525678 0.008685119 -0.068556435 -0.037830777 -0.051855836 -0.1704323 -0.06744008 -0.069767155
-0.027594754 -0.05740152 -0.052302405 -0.03393331 -0.07214359 -0.031702656 -0.009310215 -0.11010378
-0.063151546 -0.0031568895 -0.006831409 -0.027188255 -0.07320904 0.024623249 -0.07357627 -0.07836607
-0.09685982 0.12897114 -0.08957528 -0.045271114 -0.08296305 -0.02547768 -0.024458116 -0.057417195
00000000: 0f57 10bc 7b41 cebc fa59 a9bd a322 0b3d
00000010: da4c c0bd d5b5 13be 3c9e b33c c4a9 98bd
00000020: 3a4b f4bb f6f8 a33c 36b4 37bd dc24 81bc
00000030: 800f 993a a000 32bd e9eb 663c 40f9 19be
00000040: b6bf b9bd 2acf 51bd 5c7f aabc 3197 1ebc
00000050: a390 6cbc df9c 10bd cadf 513d 24e6 d7bc
00000060: 25ef dabc 62c6 0abd 8d49 b2bc 4ed1 dfbd
00000070: ad42 75bd e8d8 5dbd 31df f4bd fd1e 37bd
00000080: 1b9b aebd 084c 0e3c 5167 8cbd 72f4 1abd
00000090: c966 54bd ce85 2ebe 061e 8abd 15e2 8ebd
000000a0: 650e e2bc db1d 6bbd 0c3b 56bd a8fd 0abd
000000b0: 05c0 93bd a5da 01bd df89 18bc 177e e1bd
000000c0: 9955 81bd d1e3 4ebb 03da dfbb e7b9 debc
000000d0: 9fee 95bd b2b6 c93c 28af 96bd 647e a0bd
000000e0: 715e c6bd 0311 043e 3f73 b7bd 346e 39bd
000000f0: 88e8 a9bd 91b6 d0bc 635c c8bc 4b2e 6bbd

conv2d_1/bias f4 [32]
-0.045067113 -0.07476464 -0.013608906 0.076032035 -0.008312933 0.011112274 -0.07088495 -0.07091509
0.036698285 -0.010754428 -0.021857738 0.011656355 -0.11052888 0.011451294 -0.045206312 -0.008758023
-0.10820775 -0.051620055 -0.06822582 -0.026783785 -0.048651643 -0.024902357 0.031681634 -0.13194032
-0.0398899 -0.0820087 0.06983387 -0.032153897 -0.020416588 -0.035473004 -0.047382765 -0.065880924
00000000: 4b98 38bd 341e 99bd e4f7 5ebc afb6 9b3d
00000010: f832 08bc 4110 363c 212c 91bd ee3b 91bd
00000020: f150 163d 5733 30bc 000f b3bc 4cfa 3e3c
00000030: f75c e2bd 359e 3b3c 412a 39bd d07d 0fbc
00000040: 069c ddbd 8d6f 53bd fbb9 8bbd ab69 dbbc
00000050: f246 47bd 0700 ccbc 9ac4 013d 5d1b 07be
00000060: 9763 23bd 2df4 a7bd 0f05 8f3d ceb3 03bd
00000070: b040 a7bc 244c 11bd 6e14 42bd 94ec 86bd

conv2d/bias f4 [32]
-0.0021880313 -0.020890867 0.10634313 -0.049194794 0.012873403 -0.026487166 -0.016551208 -0.048773743
0.010989355 -0.120382674 -0.0061879735 0.010363897 -0.01175629 -0.037436023 0.0166056 -0.04356108
-0.07675093 -0.01446022 -0.023494227 0.019458173 -0.0072998945 0.0277642 0.05119667 -0.021061089
-0.009299878 -0.0054841163 -0.083466254 -0.009500185 -0.036661107 0.007158252 0.07478751 -0.02510221
00000000: 1365 0fbb 5323 abbc 6dca d93d 7b80 49bd
00000010: f7ea 523c 9dfb d8bc 6696 87bc fac6 47bd
00000020: b20c 343c 318b f6bd 7cc4 cabb 56cd 293c
00000030: 749d 40bc 8456 19bd 7808 883c 1a6d 32bd
00000040: 972f 9dbd 8fea 6cbc f776 c0bc bf66 9f3c
00000050: f433 efbb bf71 e33c 99b3 513d 4e88 acbc
00000060: 845e 18bc 1ab4 b3bb 5bf0 aabd aaa6 1bbc
00000070: f529 16bd c58f ea3b 322a 993d 26a3 cdbc

sequential/dense/MatMul f4 [128, 256]
0.028063845 -0.044485584 -0.29173687 -0.025837747 -0.059798136 0.10131088 0.007607781 0.07064544
0.13395287 0.022539265 -0.008085024 -0.022612965 -0.24016114 -0.027908267 -0.11119504 -0.033418253
-0.13785668 -0.012197288 0.21854058 -0.22389822 0.011566381 -0.109551854 0.14914893 0.029692845
0.074929945 0.11746628 -0.046228845 -0.10651401 0.04681629 0.032305818 0.014759541 0.0906355
-0.039940827 0.010744844 -0.0009648801 0.16957048 -0.054494232 -0.0038190128 -0.07005817 0.04904115
0.15776862 -0.1472263 -0.23583911 -0.007998046 -0.06442734 -0.08097943 -0.042161703 -0.13541777
0.12534566 0.04016573 -0.22914775 0.029516334 0.121478476 -0.034634188 0.07983289 0.15725878
0.13256651 -0.14425583 0.019238986 -0.07604958 -0.0912705 -0.07320873 -0.11847707 0.1069925
0.18095468 -0.10727941 -0.20294173 -0.11127103 0.074709125 0.14400168 -0.061120115 -0.026576733
-0.08448007 -0.09513452 -0.003721692 -0.11521025 -0.10426548 -0.08119901 -0.023357362 0.01773995
-0.080647804 0.20768619 0.043034833 0.08298711 0.10067563 -0.15772563 0.11631335 -0.102994286
-0.08153014 0.109881654 -0.012325063 -0.062224645 -0.014815011 -0.032239817 0.14052977 0.016690422
-0.014399012 0.022998426 0.007288652 0.15040013 -0.010224852 0.16982259 -0.09072607 0.0041118003
0.0020949629 0.083919525 -0.048291318 0.048227087 -0.07569434 -0.136064 -0.051878024 0.026054367
0.07249781 0.13091014 0.020226363 0.042531706 0.16579169 -0.106913984 -0.12602398 0.03928951
-0.032397565 0.028947847 -0.0041540596 -0.021249987 0.042854637 -0.14530161 0.08729104 -0.06715313
-0.020415455 -0.09101754 -0.042770177 0.022924442 -0.22835964 0.20119688 -0.039479233 -0.13739535
0.00024402385 0.031222155 0.08934505 0.03923794 -0.21334717 -0.18765457 -0.039393783 -0.11696117
-0.17055365 0.02634318 0.01264258 -0.17968278 0.011802208 -0.07710808 0.063100986 0.040705044
0.0909324 -0.036916696 -0.02845706 0.23815411 -0.14545272 -0.057789844 -0.0080646295 -0.0014159249
-0.14850445 0.08740899 -0.09046888 0.16041161 -0.032126166 -0.10223248 0.09029646 -0.1429492
-0.06034625 -0.10551787 -0.103132375 0.11535606 0.093723334 -0.07085452 0.057367854 -0.23925538
0.08489944 -0.07218707 -0.19268437 0.15297621 -0.17283802 -0.098659866 -0.037804972 0.14685623
0.016979974 -0.1322149 -0.0067603267 -0.084850855 0.014218215 0.0917307 -0.054452807 -0.022923555
0.17221956 -0.022751862 -0.29721332 -0.030329691 -0.13570932 0.13086702 0.049328767 -0.047332156
-0.03615337 0.08393456 0.0034273143 0.106644206 -0.1019221 -0.35958904 -0.101211965 -0.021729259
-0.14574653 -0.1097486 -0.085993074 0.004979795 -0.1089741 -0.18556888 -0.09908361 0.032312788
-0.06589517 -0.013841272 0.049371954 -0.114854656 -0.059521303 -0.05177658 0.10597014 -0.13976516
0.1382784 0.06087794 0.028595312 -0.084329955 0.08739626 0.15922369 0.103498064 0.06524776
0.031093897 0.07659131 -0.033811565 -0.13721055 -0.22571747 -0.21596308 0.006004483 -0.18968469
-0.015079196 0.032041244 0.03654259 0.08200854 0.0429068 -0.038885318 -0.15243009 -0.15380383
0.1895845 0.047483705 -0.043856636 -0.22596164 -0.07502923 0.010004826 -0.0072133415 -0.1563981
00000000: 26e6 e53c 8436 36bd 895e 95be afa9 d3bc
00000010: e4ee 74bd 147c cf3d b14a f93b 8eae 903d
00000020: f12a 093e 44a4 b83c 0c77 04bc d33e b9bc
00000030: cdec 75be e19f e4bc 3aba e3bd 94e1 08bd
00000040: 4d2a 0dbe 22d7 47bc 1ac9 5f3e 9345 65be
00000050: eb80 3d3c b95c e0bd 7fba 183e 693e f33c
00000060: df74 993d 2992 f03d 755a 3dbd 0424 dabd
00000070: 70c2 3f3d 1b53 043d 00d2 713c 1b9f b93d
00000080: fe98 23bd 240b 303c 02f0 7cba e2a3 2d3e
00000090: 5835 5fbd 6748 7abb a87a 8fbd 5fdf 483d
000000a0: 198e 213e 7ec2 16be cf7f 71be 3d0a 03bc
000000b0: 7bf2 83bd 8bd8 a5bd c0b1 2cbd f5aa 0abe
000000c0: 9d5a 003e d284 243d b5a5 6abe 3dcc f13c
000000d0: b5c9 f83d 94dc 0dbd 6d7f a33d 7208 213e
000000e0: 84bf 073e cdb7 13be 149b 9d3c e2bf 9bbd
000000f0: 07ec babd 75ee 95bd 1ba4 f2bd e21e db3d
00000100: 2f4c 393e 4fb5 dbbd f5cf 4fbe 11e2 e3bd
00000110: 1901 993d 2d75 133e 1659 7abd 73b7 d9bc
00000120: e303 adbd e3d5 c2bd a1e7 73bb 5af3 ebbd
00000130: 2489 d5bd ab4b a6bd f057 bfbc 5f53 913c
00000140: ad2a a5bd b0ab 543e 4b45 303d 25f5 a93d
00000150: 062f ce3d d482 21be b235 ee3d abee d2bd
00000160: 46f9 a6bd a209 e13d 10ef 49bc 45df 7ebd
00000170: a9ba 72bc e60d 04bd 09e7 0f3e 5aba 883c
00000180: d5e9 6bbc 3267 bc3c a5d5 ee3b 7e02 1a3e
00000190: 2386 27bc f9e5 2d3e 97ce b9bd 48bc 863b
000001a0: a54b 093b 00de ab3d 1ecd 45bd c489 453d
000001b0: a205 9bbd 5c54 0bbe 0d7e 54bd f86f d53c
000001c0: bb79 943d 4f0d 063e c2b1 a53c ba35 2e3d
000001d0: 4cc5 293e b8f5 dabd 6e0c 01be 0aee 203d
000001e0: 4fb3 04bd 0924 ed3c c71e 88bb 7414 aebc
000001f0: 5888 2f3d f2c9 14be a5c5 b23d 9587 89bd
00000200: 503e a7bc 6767 babd c82f 2fbd 0acc bb3c
00000210: 1cd7 69be 8e06 4e3e fab4 21bd 5eb1 0cbe
00000220: a7e0 7f39 9bc5 ff3c 8afa b63d f6b7 203d
00000230: ae77 5abe 8528 40be 605b 21bd 5789 efbd
00000240: 9ea5 2ebe a7cd d73c d322 4f3c c3fe 37be
00000250: 0c5e 413c d7ea 9dbd 173b 813d 55ba 263d
00000260: c43a ba3d f635 17bd c81e e9bc acde 733e
00000270: 8ff1 14be 0bb5 6cbd 8221 04bc 8e96 b9ba
00000280: 8d11 18be 7c03 b33d c047 b9bd f142 243e
00000290: ba96 03bd 435f d1bd 5aed b83d 4661 12be
000002a0: a12d 77bd c119 d8bd 1137 d3bd cc3f ec3d
000002b0: 05f2 bf3d 2d1c 91bd 8efa 6a3d 5dff 74be
000002c0: c2df ad3d d1d6 93bd 0d4f 45be cca5 1c3e
000002d0: 73fc 30be 2f0e cabd 63d9 1abd 7b61 163e
000002e0: 9619 8b3c 5863 07be bb85 ddbb 49c6 adbd
000002f0: 84f3 683c 4edd bb3d e809 5fbd 2eca bbbc
00000300: 535a 303e 1d62 babc 582c 98be f975 f8bc
00000310: 62f7 0abe 0102 063e f60c 4a3d 5ddf 41bd
00000320: 8e15 14bd e2e5 ab3d cb9c 603b 4768 da3d
00000330: 89bc d0bd 0e1c b8be 3848 cfbd 8f01 b2bc
00000340: 943e 15be e0c3 e0bd 231d b0bd 8c2d a33b
00000350: d02d dfbd c505 3ebe 59ec cabd 6a5a 043d
00000360: 0cf4 86bd 81c6 62bc 3f3a 4a3d eb38 ebbd
00000370: 9ccc 73bd ae13 54bd df06 d93d 991e 0fbe
00000380: da98 0d3e 265b 793d b740 ea3c 2fb5 acbd
00000390: cffc b23d 890b 233e cbf6 d33d 9ea0 853d
000003a0: a1b8 fe3c e8db 9c3d ff7d 0abd ec80 0cbe
000003b0: 7b22 67be 6d25 5dbe 41c1 c43b b43c 42be
000003c0: bb0e 77bc ae3d 033d afad 153d 18f4 a73d
000003d0: 0abf 2f3d 3646 1fbd a216 1cbe c07e 1dbe
000003e0: 7022 423e 467e 423d 04a3 33bd 7d62 67be
000003f0: eda8 99bd 48eb 233c e55d ecbb d326 20be

sequential/dense_1/MatMul f4 [64, 128]
-0.19882618 0.0925428 -0.042104077 0.05878776 0.015471334 -0.103297934 0.19274548 0.21865726
-0.08901657 0.041521855 0.043324374 0.07127815 0.082537845 0.20777836 0.0726191 0.16731225
-0.25840816 0.21703616 -0.2970382 -0.0104598915 -0.038819563 -0.06009516 -0.061869916 0.1599127
-0.059176955 0.013823112 0.0018608217 -0.44137096 -0.17002049 0.04352309 0.057164505 0.12775116
0.12866245 0.020073984 -0.100429974 0.037798926 0.008171549 -0.20737593 -0.2647217 -0.22078231
-0.046304334 0.08187918 0.04061707 0.19424924 -0.186943 0.19435689 -0.095749535 0.018452184
-0.101523675 -0.2501841 -0.1835852 0.0042797127 0.05221316 -0.020132212 0.07142151 -0.22153027
0.051818933 0.18703444 -0.09587574 -0.15798086 -0.23635453 -0.3356635 -0.17728497 -0.2543092
-0.21573871 0.10624757 0.22848274 0.15191838 -0.008715076 0.083977945 -0.068949774 -0.084693395
0.101348005 -0.07779551 0.092897 -0.054374255 -0.058898047 -0.15627971 0.15671855 -0.03489873
-0.11050617 0.19510777 -0.042931225 -0.21884029 -0.09657686 -0.07720451 -0.08487552 0.08008437
-0.022332031 0.025790077 -0.11645322 0.2761035 0.18593098 -0.115122765 0.12787536 -0.02444596
-0.062241685 -0.117530406 -0.05249858 0.06605125 -0.05971392 -0.03535445 -0.26003724 0.16069587
-0.10466879 -0.13790666 0.0587905 0.12140299 0.027885122 -0.052444752 -0.053806096 0.07763805
0.26128545 -0.27732247 0.12114058 0.062234778 0.1326487 -0.04945191 -0.29415822 -0.09322758
-0.13601817 -0.14052418 -0.08002048 0.14134696 -0.025895767 0.025220308 0.09921001 0.17186467
-0.13327812 0.0226756 0.07516158 0.051930174 0.05597469 0.017083505 0.045851618 -0.045799546
0.17468408 -0.16808662 0.0148297 0.059779048 0.09900861 -0.11113744 -0.10815256 -0.0006188025
-0.2928375 -0.002360136 -0.09170908 -0.15019706 -0.081743464 -0.08127393 0.04243519 -0.18536317
0.109086886 0.10300065 -0.16590175 0.044574 -0.011377105 -0.11393819 -0.11907609 -0.07349572
0.19244283 0.02706304 0.10264754 0.067865595 -0.049088918 -0.079335265 -0.057081122 0.042150676
0.19740176 0.19715635 -0.03912415 -0.16868204 0.08145581 -0.20950493 -0.184445 -0.19047508
0.042959128 0.08461376 -0.08484367 -0.10774504 -0.078767486 -0.009543268 0.32208177 -0.06705267
0.2413005 0.1564426 -0.020471293 -0.029363357 0.112142935 -0.10792656 -0.061466567 0.077825196
-0.06912225 -0.045520995 0.18592918 -0.07546404 -0.08836861 0.06376467 0.0022997686 -0.09096724
0.025763996 -0.020802425 -0.027375929 -0.07277295 -0.14808245 -0.009016263 0.1590694 -0.1388996
-0.041992653 0.09080194 -0.030420333 -0.10912751 -0.15384243 -0.06638253 -0.04696269 0.04874472
0.07754219 -0.2155693 0.096680366 -0.05337944 -0.1462834 -0.057429083 -0.08159 -0.028108126
0.09410528 -0.027471362 0.17062458 0.20617974 -0.009684726 -0.030240143 -0.1557453 -0.0029827903
0.084812954 0.05363129 -0.05429517 -0.20759395 0.13352099 0.044112984 0.00013551835 -0.14125237
-0.10488725 -0.12980513 0.006592508 -0.19138789 0.0034309886 0.08641439 -0.14794639 -0.14386123
0.015598812 0.00020077064 0.018950094 -0.12653032 -0.16389981 -0.17850007 0.097834766 0.03584634
00000000: 1799 4bbe 1487 bd3d 5375 2cbd 6fcb 703d
00000010: 7a7b 7d3c de8d d3bd 125f 453e b0e7 5f3e
00000020: 524e b6bd d212 2a3d e674 313d 47fa 913d
00000030: 9a09 a93d dac3 543e 53b9 943d e753 2b3e
00000040: 134e 84be ba3e 5e3e 6415 98be f75f 2bbc
00000050: 4301 1fbd 5826 76bd 4f6b 7dbd 28c0 233e
00000060: 8963 72bd 557a 623c d1e6 f33a 60fb e1be
00000070: da19 2ebe 4545 323d 5425 6a3d 33d1 023e
00000080: 17c0 033e 3272 a43c 3bae cdbd 0cd3 1a3d
00000090: f6e1 053c 5b5a 54be 9a89 87be c214 62be
000000a0: 9da9 3dbd 46b0 a73d 165e 263d 46e9 463e
000000b0: fc6d 3fbe 7e05 473e 5518 c4bd 0929 973c
000000c0: a5eb cfbd 2118 80be c2fd 3bbe d53c 8c3b
000000d0: 77dd 553d 4fec a4bc 7145 923d d5d8 62be
000000e0: 1740 543d f585 3f3e 805a c4bd bcc5 21be
000000f0: ec06 72be 16dc abbe 318a 35be d134 82be
00000100: 9cea 5cbe 5398 d93d 61f7 693e 7e90 1b3e
00000110: aec9 0ebc a1fc ab3d 8a35 8dbd bb73 adbd
00000120: 8b8f cf3d 4153 9fbd c840 be3d 8ab7 5ebd
00000130: 143f 71bd ca07 20be d47a 203e f9f1 0ebd
00000140: 0f51 e2bd 55ca 473e a7d8 2fbd ab17 60be
00000150: 17ca c5bd 661d 9ebd 37d3 adbd 4603 a43d
00000160: aaf1 b6bc b645 d33c 077f eebd 705d 8d3e
00000170: b164 3e3e 7cc5 ebbd c2f1 023e e542 c8bc
00000180: 23f1 7ebd c8b3 f0bd c008 57bd e145 873d
00000190: 9596 74bd d4cf 10bd 9a23 85be 758d 243e
000001a0: 975c d6bd 6737 0dbe 4fce 703d 21a2 f83d
000001b0: 576f e43c 4fd0 56bd c863 5cbd b300 9f3d
000001c0: 35c7 853e 36fd 8dbe 8d18 f83d e5e9 7e3d
000001d0: 10d5 073e 168e 4abd e89b 96be 1aee bebd
000001e0: 5948 0bbe 92e5 0fbe c7e1 a3bd 42bd 103e
000001f0: 5c23 d4bc d29a ce3c 9e2e cb3d 4bfd 2f3e
00000200: 0f7a 08be 2ec2 b93c 51ee 993d bcb4 543d
00000210: b745 653d b5f2 8b3c e8ce 3b3d 4e98 3bbd
00000220: 62e0 323e e61e 2cbe 45f8 723c e0da 743d
00000230: 07c5 ca3d 079c e3bd 177f ddbd 2237 22ba
00000240: ccee 95be 83ac 1abb f8d1 bbbd 42cd 19be
00000250: 1e69 a7bd f272 a6bd 86d0 2d3d d8cf 3dbe
00000260: f268 df3d 01f2 d23d 26e2 29be 3a93 363d
00000270: 0967 3abc 6d58 e9bd 2ade f3bd ed84 96bd
00000280: bc0f 453e 4fb3 dd3c e038 d23d 1efd 8a3d
00000290: 7611 49bd 877a a2bd e5cd 69bd 30a6 2c3d
000002a0: b023 4a3e 5be3 493e a540 20bd fcba 2cbe
000002b0: 4ed2 a63d 7688 56be 26df 3cbe e60b 43be
000002c0: e9f5 2f3d fb49 ad3d 85c2 adbd 6ea9 dcbd
000002d0: d950 a1bd 5e5b 1cbc e7e7 a43e e952 89bd
000002e0: 7a17 773e 7d32 203e 6ab3 a7bc 6c8b f0bc
000002f0: 32ab e53d 9a08 ddbd 5ec4 7bbd d162 9f3d
00000300: f78f 8dbd 3974 3abd 3864 3e3e e48c 9abd
00000310: 9afa b4bd 0d97 823d b7b7 163b 084d babd
00000320: 040f d33c d969 aabc 7c43 e0bc fc09 95bd
00000330: eda2 17be f3b8 13bc 17e3 223e b23b 0ebe
00000340: 7d00 2cbd 5ef6 b93d 1034 f9bc 3e7e dfbd
00000350: df88 1dbe 90f3 87bd f35b 40bd 8ba8 473d
00000360: 71ce 9e3d 33be 5cbe 5b00 c63d 66a4 5abd
00000370: 51cb 15be c23a 6bbd a818 a7bd 0343 e6bc
00000380: 45ba c03d 9f0b e1bc 36b8 2e3e c820 533e
00000390: afac 1ebc 2dba f7bc b27b 1fbe eb7a 43bb
000003a0: 6ab2 ad3d 7cac 5b3d 9d64 5ebd 8293 54be
000003b0: bab9 083e d1af 343d ee19 0e39 76a4 10be
000003c0: 20cf d6bd a3eb 04be f705 d83b 30fb 43be
000003d0: 70da 603b 07fa b03d 427f 17be 5c50 13be
000003e0: 2992 7f3c f585 5239 3a3d 9b3c 2a91 01be
000003f0: 5ad5 27be b9c8 36be 985d c83d 9dd3 123d

sequential/dense_2/MatMul f4 [10, 64]
0.10216107 0.10262138 0.0003092399 -0.1728333 -0.05789401 0.08209758 0.12707429 -0.12723328
0.11156644 -0.19551037 -0.31541234 -0.08873579 -0.0062908917 -0.029836213 0.025030816 0.07245325
0.03237131 0.06070419 -0.018011894 -0.183083 -0.025149828 -0.34173352 -0.28391162 0.016569082
-0.27655706 0.15410833 -0.1859114 0.18422998 -0.12091186 -0.22182204 0.10106207 -0.08022464
0.037763465 -0.2859318 -0.046377033 0.25697112 -0.042373464 0.25354132 0.106357045 0.05683892
0.13500804 -0.121090084 0.13812737 -0.07377112 -0.114919156 -0.13261244 -0.17367543 0.14916688
-0.13398227 -0.30831838 0.023145156 0.086829714 0.016664242 -0.3445268 0.19719319 -0.23119107
-0.020885877 0.00089216384 0.019255748 0.09143278 -0.25884417 -0.3238708 -0.12182864 0.21979746
-0.010745038 -0.20403323 -0.16281463 -0.043515503 0.18741608 0.032985732 0.10432711 0.021022337
0.020616323 -0.10036494 0.23154962 -0.25438944 -0.078838244 -0.24880002 0.14192457 0.010936065
-0.42736813 0.14426135 -0.18139507 -0.17760356 0.096253164 -0.025446348 -0.11542005 -0.022403758
0.079353645 -0.076250486 0.3226105 0.1968104 0.019513331 0.1740901 0.18517484 -0.068875395
-0.07750364 0.25965762 0.10933857 0.074943796 0.057785943 0.022898724 -0.04568687 -0.15308166
0.09281838 0.24185842 -0.064555034 -0.219637 -0.15985046 -0.04604342 -0.1562202 -0.20214134
-0.16139317 0.08255411 0.059226368 -0.110350534 0.04012082 -0.15413104 -0.15792139 -0.11702485
-0.3154258 -0.12062358 0.013307032 -0.22338869 0.0071501383 -0.26497737 -0.029075712 0.28386584
-0.3138619 0.09895855 -0.26300102 -0.17258176 0.20084302 -0.17383842 0.007845093 0.07453743
-0.057698715 -0.036547158 -0.07067738 -0.08676718 0.18844208 0.032519624 0.018593825 0.25087735
0.18259527 0.07852278 -0.25927275 0.065546915 0.17726873 0.05519248 -0.17009494 -0.15213044
0.065816976 -0.26286596 0.19286732 0.14252223 0.11706099 -0.075744554 -0.17990096 0.1339021
0.21802977 -0.067213 -0.17542425 -0.25623095 -0.20070395 0.1385875 0.09982336 -0.0051204334
-0.10451719 0.10261536 -0.24071015 0.03443723 -0.16244942 -0.25335938 -0.21073925 -0.12277931
0.12880187 0.04944829 -0.3370411 -0.31751466 0.045250792 -0.049444262 0.25653958 -0.2124635
-0.23391724 0.26316756 0.012766131 -0.011696223 0.03861828 0.26946345 -0.05658708 0.222909
-0.25371104 -0.04256766 0.19283943 -0.031982254 -0.0043460224 -0.03127745 -0.09909337 0.19597045
0.15968522 0.20561191 -0.15373817 0.108574875 -0.17542551 0.14023794 -0.1604166 -0.03845092
-0.1589535 0.025542649 0.06633879 -0.16141535 0.009375503 0.06603625 -0.06914105 0.16234908
-0.18457372 -0.3113951 -0.20896631 0.23384742 0.1511723 0.21216217 0.23409441 0.20252895
-0.20160845 -0.03907459 0.004706948 -0.29498115 -0.1275872 -0.21825725 -0.028594432 -0.24230212
0.030311342 0.073914476 0.17973033 -0.123369895 0.2511708 0.14932805 -0.20035519 -0.21027786
0.18984689 -0.079615854 0.10424811 -0.0875392 0.18376893 0.11553484 -0.12324892 0.089633726
-0.09148078 -0.061921906 -0.28065488 0.059935182 0.017518751 0.07489642 -0.2584596 -0.2584372
00000000: d339 d13d 282b d23d 7a21 a239 36fb 30be
00000010: 4522 6dbd c722 a83d c31f 023e 7149 02be
00000020: f27c e43d df33 48be ba7d a1be 1cbb b5bd
00000030: d323 cebb 136b f4bc 6d0d cd3c 5f62 943d
00000040: c797 043d f5a4 783d ae8d 93bc 1c7a 3bbe
00000050: 0307 cebc b2f7 aebe dd5c 91be e2bb 873c
00000060: e398 8dbe 93ce 1d3e 8f5f 3ebe c9a6 3c3e
00000070: a3a0 f7bd 5125 63be a1f9 ce3d d14c a4bd
00000080: ddad 1a3d a765 92be d8f5 3dbd b891 833e
00000090: cc8f 2dbd 2bd0 813e b9d1 d93d edcf 683d
000000a0: 8c3f 0a3e 14fe f7bd 4371 0d3e 5015 97bd
000000b0: bc5a ebbd 8ecb 07be f9d7 31be 34bf 183e
000000c0: a632 09be e8db 9dbe e99a bd3c c7d3 b13d
000000d0: 7383 883c d165 b0be 03ed 493e 5abd 6cbe
000000e0: dc18 abbc 1ae0 693a 3bbe 9d3c 1c41 bb3d
000000f0: 3987 84be 65d2 a5be 4b81 f9bd 9612 613e
00000100: f50b 30bc 16ee 50be e1b8 26be 503d 32bd
00000110: 00ea 3f3e 0c1c 073d 74a9 d53d 0937 ac3c
00000120: 90e3 a83c 228c cdbd 581b 6d3e 553f 82be
00000130: f275 a1bd 6fc5 7ebe ad54 113e 2e2d 333c
00000140: ffcf dabe 3fb9 133e a1bf 39be b5dd 35be
00000150: 6120 c53d dc74 d0bc 5961 ecbd 1688 b7bc
00000160: 2a84 a23d 3729 9cbd 342d a53e aa88 493e
00000170: 6cda 9f3c ad44 323e 799e 3d3e 8b0e 8dbd
00000180: 3aba 9ebd d8f1 843e e6ec df3d 227c 993d
00000190: f4b0 6c3d 1b96 bb3c 2822 3bbd 70c1 1cbe
000001a0: 9017 be3d bca9 773e 6e35 84bd 86e8 60be
000001b0: d7af 23be 0698 3cbd 30f8 1fbe 24fe 4ebe
000001c0: 4044 25be 2112 a93d 5997 723d 76ff e1bd
000001d0: bb55 243d 87d4 1dbe 25b6 21be b9aa efbd
000001e0: 7e7f a1be 7f09 f7bd bd05 5a3c 01c0 64be
000001f0: b54b ea3b 1dab 87be 3030 eebc dd56 913e
00000200: 82b2 a0be c8aa ca3d 12a8 86be 46b9 30be
00000210: cba9 4d3e b302 32be b488 003c 15a7 983d
00000220: 7d55 6cbd 79b2 15bd 4dbf 90bd feb2 b1bd
00000230: f6f6 403e 4c33 053d 1452 983c ff72 803e
00000240: 41fa 3a3e 8dd0 a03d 66bf 84be 763d 863d
00000250: ef85 353e 8311 623d 5e2d 2ebe 15c8 1bbe
00000260: 0dcb 863d 5e96 86be 037f 453e 59f1 113e
00000270: acbd ef3d f61f 9bbd f537 38be a21d 093e
00000280: 3243 5f3e f8a6 89bd 6aa2 33be b430 83be
00000290: 5685 4dbe e2e9 0d3e 3170 cc3d 4fc9 a7bb
000002a0: 1c0d d6bd 0028 d23d b97c 76be 0e0e 0d3d
000002b0: 2459 26be 52b8 81be 08cc 57be b873 fbbd
000002c0: a3e4 033e 4a8a 4a3d a790 acbe 4891 a2be
000002d0: e558 393d 1186 4abd 2859 833e 0890 59be
000002e0: 0088 6fbe e6bd 863e 0929 513c 84a1 3fbc
000002f0: 342e 1e3d 1df7 893e dbc7 67bd 4242 643e
00000300: 6ae6 81be 6d5b 2ebd b377 453e d3ff 02bd
00000310: 1469 8ebb c91c 00bd 77f1 cabd 7aac 483e
00000320: 8684 233e ee8b 523e 8a6d 1dbe 815c de3d
00000330: bfa2 33be 899a 0f3e 4044 24be b67e 1dbd
00000340: b5c4 22be d13e d13c a2dc 873d 114a 25be
00000350: b69b 193c 033e 873d d399 8dbd d63e 263e
00000360: e500 3dbe 2e6f 9fbe 44fb 55be b375 6f3e
00000370: e9cc 1a3e 0a41 593e 72b6 6f3e c063 4f3e
00000380: 7272 4ebe ad0c 20bd be3c 9a3b c507 97be
00000390: 38a6 02be d47e 5fbe df3e eabc 0c1e 78be
000003a0: 7e4f f83c 7960 973d 3a0b 383e 5ba9 fcbd
000003b0: 7699 803e 74e9 183e e929 4dbe 1453 57be
000003c0: 3967 423e a30d a3bd 0880 d53d c147 b3bd
000003d0: ec2d 3c3e 889d ec3d ee69 fcbd e391 b73d
000003e0: 465a bbbd d3a1 7dbd ffb1 8fbe 987e 753d
000003f0: 7c83 8f3c 4b63 993d d154 84be e151 84be

sequential/conv2d/Conv2D f4 [32, 3, 3, 3]
0.059730005 0.13131237 -0.08486745 -0.0694623 0.15032606 -0.121007025 -0.030619847 -0.008733009
-0.19340695 -0.0996628 -0.05161199 -0.13623103 -0.091889806 0.007738536 -0.20567138 0.086030625
0.12158313 -0.3118034 -0.07635892 -0.08137157 -0.33158293 0.082254864 0.115862414 -0.23053363
-0.13500166 0.08829057 -0.079530396 0.07536621 0.057081617 -0.022668058 0.02556624 -0.13841861
0.071692064 -0.029473051 0.093798794 -0.14549986 -0.12539361 -0.07769868 -0.12725963 -0.053307578
-0.13851255 -0.10124407 -0.01473283 -0.092870995 -0.026287423 -0.011309191 -0.105839856 0.061270658
0.03126337 0.011769612 0.04106695 -0.054599196 0.13231637 0.119531035 -0.09082232 0.11022852
0.13223575 -0.15177143 -0.07453568 0.06575286 -0.19155937 -0.12758029 0.10027432 0.07475012
0.026287798 0.11887925 -0.17913806 -0.11210446 0.09516949 -0.1972982 -0.09511787 -0.1162195
0.071157694 0.09123308 -0.022298409 -0.18192542 -0.08016745 -0.035856143 -0.21583834 -0.13808598
0.07344962 0.099580176 0.09285318 -0.054117568 -0.16386923 0.023145437 -0.07433312 0.09712371
-0.14028706 -0.08756073 -0.12167077 -0.08024306 -0.106465876 -0.10236642 -0.1595743 -0.17724875
0.09940214 0.088500805 0.15051654 -0.020148247 0.09772063 -0.028017579 -0.12414428 -0.12739836
-0.049275365 0.02237817 0.13749404 0.17857318 0.015353347 -0.1329288 -0.037601966 0.031700607
-0.18498491 -0.14941901 -0.05133266 -0.14473316 -0.0010948291 0.14291824 0.03984996 0.17164624
0.062428497 -0.044031452 -0.07511547 0.14784545 -0.15580817 -0.055135727 0.18720844 0.09797898
0.014886174 -0.075235866 -0.15115206 -0.06506908 0.16537833 0.021963945 0.16630745 0.029699618
-0.004050694 -0.03840587 -0.005975748 -0.1254094 0.15855835 -0.008251643 0.0045313356 0.06854156
0.071472995 -0.08190128 0.1366686 0.04577242 -0.18546855 -0.067065895 0.06604708 -0.17933688
0.0466997 0.16413932 0.0084962305 0.14960933 0.12076157 -0.11657825 0.062624544 -0.06280849
-0.07527555 0.0045530624 -0.14887886 0.036992986 -0.13894477 0.013874003 -0.03484379 -0.12486408
-0.051940143 0.057531524 0.04363785 0.04984366 -0.025167538 -0.15452917 -0.042816535 -0.10463978
0.019508693 -0.12877077 -0.14003904 -0.030186685 0.052128416 -0.06490748 -0.16567086 -0.10863589
-0.10086959 -0.022183139 -0.028811648 -0.07549261 0.0066527925 0.030774143 0.027748587 0.00434347
0.037649635 -0.001529553 -0.007720517 0.06838066 0.019916696 -0.031278744 -0.10097858 0.0147568295
-0.088560745 0.013671116 -0.044798475 -0.01702518 -0.06969318 -0.14081152 -0.17452244 -0.13622513
-0.083362825 0.07836164 -0.07379883 -0.10491422 -0.0808425 0.049517572 -0.03368897 0.007314415
0.19497077 0.049566697 0.058732193 0.10450661 -0.066456266 0.10127173 0.117386065 -0.09652875
0.0054638665 0.18210262 0.077775285 0.0677387 0.019597404 0.009665857 -0.09428607 -0.038587313
-0.042756286 -0.14502858 0.017771078 -0.08627371 -0.1531143 0.043758687 0.020267462 -0.2384284
-0.073299296 -0.22039002 -0.0982622 0.13110259 0.15456405 -0.036513455 -0.0806754 0.1261685
-0.10134489 -0.016226064 0.073742196 -0.060763024 -0.117087774 0.17922777 -0.14889449 -0.058792345
00000000: 73a7 743d c076 063e fcce adbd 4042 8ebd
00000010: 13ef 193e 88d2 f7bd 79d6 fabc e514 0fbc
00000020: 790c 46be 031c ccbd 1867 53bd 2680 0bbe
00000030: b930 bcbd 8c93 fd3b 859b 52be d330 b03d
00000040: 9300 f93d b2a4 9fbe 1162 9cbd 23a6 a6bd
00000050: 3dc5 a9be 3d75 a83d 4649 ed3d 0211 6cbe
00000060: e03d 0abe b0d1 b43d d5e0 a2bd 9959 9a3d
00000070: 6ace 693d 5db2 b9bc 4b70 d13c 9cbd 0dbe
00000080: 4ad3 923d 7871 f1bc 9519 c03d eafd 14be
00000090: 2f67 00be 7c20 9fbd 5950 02be 0c59 5abd
000000a0: 3cd6 0dbe 0d59 cfbd f861 71bc 2633 bebd
000000b0: b958 d7bc 2f4a 39bc 91c2 d8bd f1f6 7a3d
000000c0: 050e 003d 55d5 403c d135 283d 68a3 5fbd
000000d0: f17d 073e b0cc f43d 0d01 babd 7ebf e13d
000000e0: cf68 073e f869 1bbe 2aa6 98bd 6fa9 863d
000000f0: 2428 44be 68a4 02be 9f5c cd3d 9716 993d
00000100: 8259 d73c f776 f33d f86f 37be 0697 e5bd
00000110: 39e8 c23d 8a08 4abe 28cd c2bd 7d04 eebd
00000120: 20bb 913d 69d8 ba3d 27ab b6bc a84a 3abe
00000130: d52e a4bd e4dd 12bd ba04 5dbe 6966 0dbe
00000140: c16c 963d b1f0 cb3d cf29 be3d 62aa 5dbd
00000150: 56cd 27be 809b bd3c f63b 98bd cce8 c63d
00000160: 69a7 0fbe 0a53 b3bd 862e f9bd 7956 a4bd
00000170: c80a dabd 7ca5 d1bd 7267 23be b280 35be
00000180: 5993 cb3d e93f b53d 0221 1a3e f00d a5bc
00000190: c121 c83d 1f85 e5bc 5b3f febd b774 02be
000001a0: f7d4 49bd 6d52 b73c 3dcb 0c3e e3db 363e
000001b0: 9b8c 7b3c 7d1e 08be 8504 1abd 7fd8 013d
000001c0: af6c 3dbe 4c01 19be 3242 52bd ee34 14be
000001d0: 5e80 8fba 2959 123e b639 233d 08c4 2f3e
000001e0: 06b5 7f3d 535a 34bd 24d6 99bd cc64 173e
000001f0: 2d8c 1fbe 00d6 61bd 92b3 3f3e 34a9 c83d
00000200: 24e5 733c 4315 9abd 9bc7 1abe f042 85bd
00000210: f058 293e bbed b33c 804c 2a3e 9d4c f33c
00000220: afbb 84bb 794f 1dbd 35d0 c3bb 526b 00be
00000230: 1f5d 223e e631 07bc 997b 943b 845f 8c3d
00000240: 6f60 923d dcbb a7bd daf2 0b3e dc7b 3b3d
00000250: 78eb 3dbe d859 89bd b143 873d 16a4 37be
00000260: 2f48 3f3d 2314 283e c633 0b3c 3033 193e
00000270: d851 f73d 94c0 eebd 4c41 803d bda1 80bd
00000280: 112a 9abd db31 953b b373 18be f585 173d
00000290: 8a47 0ebe c94f 633c 5db8 0ebd bdb8 ffbd
000002a0: 30bf 54bd 2da6 6b3d 9abd 323d de28 4c3d
000002b0: 272c cebc e53c 1ebe 6460 2fbd 624d d6bd
000002c0: b2d0 9f3c 7cdc 03be 6566 0fbe 114a f7bc
000002d0: 9b84 553d 36ee 84bd 9fa5 29be 7e7c debd
000002e0: b794 cebd 6ab9 b5bc 6806 ecbc df9b 9abd
000002f0: abff d93b 0e1a fc3c 0151 e33c ab53 8e3b
00000300: 8136 1a3d 487b c8ba 64fc fcbb 290b 8c3d
00000310: 5728 a33c 241e 00bd dccd cebd a1c6 713c
00000320: 565f b5bd d1fc 5f3c 9b7e 37bd 6478 8bbc
00000330: 4cbb 8ebd e530 10be 03b6 32be 9a7e 0bbe
00000340: 21ba aabd 117c a03d d723 97bd 44dd d6bd
00000350: c190 a5bd f0d2 4a3d 72fd 09bd c3ad ef3b
00000360: 6ba6 473e 7306 4b3d 2b91 703d 9007 d63d
00000370: 391a 88bd 8e67 cf3d 1b68 f03d deb0 c5bd
00000380: 3c0a b33b 1c79 3a3e a648 9f3d 96ba 8a3d
00000390: bc8a a03c 8b5d 1e3c 0e19 c1bd bb0d 1ebd
000003a0: 3721 2fbd 5f82 14be a794 913c 45b0 b0bd
000003b0: ffc9 1cbe 4f3c 333d f307 a63c 9326 74be
000003c0: f11d 96bd ecad 61be b13d c9bd c23f 063e
000003d0: 0a46 1e3e 228f 15bd 2539 a5bd 5132 013e
000003e0: e98d cfbd 86ec 84bc 2606 973d a6e2 78bd
000003f0: b7cb efbd 7c87 373e cc77 18be 3ed0 70bd

sequential/conv2d_1/Conv2D f4 [32, 3, 3, 32]
-0.09515631 -0.028526874 0.07022477 -0.056935582 -0.15744558 -0.06469511 -0.048921857 -0.06427348
-0.0033529298 -0.011047241 0.092126235 -0.06605571 0.011852559 0.08623855 -0.045344725 -0.010014082
-0.049450755 -0.027327934 -0.06655894 -0.04790071 0.0495457 -0.05032397 -0.02683923 0.03560492
-0.00978635 -0.0035113425 0.040575966 -0.015173814 -0.07840832 -0.051594384 -0.052991077 0.06874725
0.07619226 -0.00030458637 -0.015841484 0.03256743 0.005675199 -0.015789948 0.07142312 -0.0031442582
-0.10563629 0.0134901535 0.08525911 0.00694643 0.0036445297 -0.05923233 -0.069849476 0.041685548
-0.029580968 -0.02604063 0.014031334 0.035322372 -0.07305887 0.0038143017 -0.054085586 0.023596197
-0.025710613 0.0880729 -0.017973764 0.06975934 0.06697146 -0.11562868 0.10041408 -0.11440978
0.055857085 0.05528567 0.03952071 0.089485705 -0.12233155 0.011932137 -0.062305897 0.040747337
0.039324313 -0.009586777 -0.0067406446 0.0055456134 -0.05102971 0.04264807 -0.056641743 0.08688908
-0.07057321 0.07202648 -0.060494047 -0.033582054 -0.112678 -0.06824084 -0.11048953 0.013493625
0.037187744 -0.018837351 -0.050434604 -0.07309702 0.017664194 0.066474505 -0.066918775 -0.00091386505
-0.07248399 -0.017258447 -0.0611484 -0.07410824 -0.1443564 0.014870102 0.04074896 -0.1024291
-0.077620685 -0.019162336 0.011973211 -0.054054268 0.0049685095 -0.044317238 -0.10805192 0.06553179
-0.097627275 -0.0591753 0.01690291 0.011007716 0.011532872 -0.10798244 0.059213407 -0.018783951
0.013994452 -0.056858737 0.023530254 0.06837063 -0.027352022 -0.0073314905 0.06262537 -0.052368354
-0.09825125 0.0011530602 -0.099545285 -0.03481929 0.021822354 0.052098792 0.0025196932 -0.10169861
0.06400185 -0.059636444 0.094659954 -0.05450066 -0.02557707 -0.06406003 0.03763579 -0.05543578
-0.046006054 0.0069359303 0.043773334 -0.0864377 0.055279102 0.002991859 -0.03408849 -0.014706872
-0.10645992 -0.08341771 0.027612168 -0.015997602 -0.0817806 -0.08765118 0.08576212 0.013604727
0.054007027 0.011367429 0.026531508 0.0029803726 -0.0038044208 -0.07079937 0.08846422 0.06034956
-0.07002807 0.03484201 -0.055264566 -0.0044301846 0.05160568 0.036730863 -0.12509723 0.08628756
-0.105003856 -0.08912163 -0.08941928 0.007769778 0.029049406 0.0725539 -0.012456432 0.04815502
-0.03223594 0.058222137 -0.01180309 -0.045932032 -0.0625665 -0.08721394 0.033931404 -0.121588096
0.011274416 -0.11197722 0.058172505 0.022076035 -0.087258115 0.030571679 0.053096537 -0.084867686
0.05996227 0.0033815673 -0.039327394 -0.11512799 0.018799843 -0.117811725 0.029350447 -0.09603366
-0.06288412 0.05450201 0.04060483 -0.1158051 -0.031059783 -0.021859394 -0.044273555 -0.0115282675
-0.015754122 0.0138198 -0.061916202 -0.10694361 -0.05979833 0.0129218 -0.09381514 -0.057157245
-0.014948781 -0.049760442 -0.078591436 -0.104482755 0.006661789 -0.027702391 0.05810636 0.061830938
0.029950945 -0.05539296 0.0496813 -0.004829596 -0.10201615 -0.060771476 0.051423185 0.044770647
-0.04852888 0.057238065 -0.023072854 -0.024367066 -0.087617025 -0.02603362 -0.059302397 -0.017215589
-0.031922244 0.06782687 0.0373605 -0.09163644 -0.052529987 -0.016334359 0.012324677 -0.011895804
00000000: 50e1 c2bd 31b1 e9bc 01d2 8f3d 4935 69bd
00000010: 6a39 21be df7e 84bd 4962 48bd d0a1 83bd
00000020: d4bc 5bbb 7dff 34bc aeac bc3d 3748 87bd
00000030: 3c31 423c d69d b03d 64bb 39bd 1b12 24bc
00000040: e08c 4abd d5de dfbc 0e50 88bd 8933 44bd
00000050: 6ff0 4a3d 8220 4ebd f2dd dbbc 77d6 113d
00000060: ed56 20bc 8d1e 66bb fc32 263d 979b 78bc
00000070: 8b94 a0bd a254 53bd 2c0d 59bd 5ccb 8c3d
00000080: b00a 9c3d e4b0 9fb9 00c6 81bc 6d65 053d
00000090: 05f7 b93b ec59 81bc 4946 923d e60f 4ebb
000000a0: d757 d8bd ce05 5d3c 549c ae3d e19e e33b
000000b0: 10d9 6e3b 9a9d 72bd 3e0d 8fbd 77be 2a3d
000000c0: c953 f2bc 2953 d5bc aee3 653c 31ae 103d
000000d0: e49f 95bd 5df9 793b d988 5dbd d04c c13c
000000e0: 109f d2bc 915f b43d b73d 93bc fcdd 8e3d
000000f0: 5528 893d bbce ecbd e6a5 cd3d ad4f eabd
00000100: 66ca 643d 3a73 623d 78e0 213d 4844 b73d
00000110: f788 fabd 037f 433c 7834 7fbd aee6 263d
00000120: 8812 213d db11 1dbc a0e0 dcbb fab7 b53b
00000130: 8704 51bd beaf 2e3d 2c01 68bd e7f2 b13d
00000140: b088 90bd 9f82 933d 9bc8 77bd 568d 09bd
00000150: b9c3 e6bd dbc1 8bbd 5648 e2bd 5e14 5d3c
00000160: 2d52 183d ca50 9abc 8494 4ebd e4b3 95bd
00000170: 80b4 903c c923 883d b60c 89bd 7290 6fba
00000180: 7c72 94bd 9661 8dbc bf76 7abd 10c6 97bd
00000190: 2ad2 13be baa1 733c 62e8 263d 59c6 d1bd
000001a0: 98f7 9ebd 55fa 9cbc 492b 443c 0268 5dbd
000001b0: e1ce a23b fe85 35bd 534a ddbd 8835 863d
000001c0: cff0 c7bd cd61 72bd f977 8a3c b559 343c
000001d0: 5ff4 3c3c e625 ddbd c289 723d cde0 99bc
000001e0: fc48 653c b5e4 68bd 85c2 c03c e705 8c3d
000001f0: 5911 e0bc 003d f0bb bb41 803d 3380 56bd
00000200: f437 c9bd 4822 973a 66de cbbd ac9e 0ebd
00000210: cbc4 b23c 8b65 553d 7021 253b 5c47 d0bd
00000220: 6713 833d 5845 74bd 14dd c13d 163c 5fbd
00000230: 0187 d1bc e831 83bd fc27 1a3d a110 63bd
00000240: d870 3cbd cd46 e33b ab4b 333d 4006 b1bd
00000250: 576c 623d 1113 443b 5fa0 0bbd 18f5 70bc
00000260: a907 dabd e8d6 aabd ea32 e23c 670d 83bc
00000270: 967c a7bd 7682 b3bd 0da4 af3d 5ce6 5e3c
00000280: 7936 5d3d 743e 3a3c 9b58 d93c 5b52 433b
00000290: 9753 79bb 43ff 90bd bb2c b53d 1a31 773d
000002a0: e06a 8fbd 7fb6 0e3d 195d 62bd 152b 91bb
000002b0: 7a60 533d 1a73 163d 7d19 00be 88b7 b03d
000002c0: 430c d7bd 6785 b6bd 7521 b7bd 9f99 fe3b
000002d0: 05f9 ed3c 2497 943d 1016 4cbc 333e 453d
000002e0: d509 04bd 567a 6e3d bf61 41bc 3a23 3cbd
000002f0: dd22 80bd 399d b2bd a8fb 0a3d 2e03 f9bd
00000300: 54b8 383c 5054 e5bd 4b46 6e3d cdd8 b43c
00000310: 62b4 b2bd 7571 fa3c c17b 593d 1ccf adbd
00000320: ff9a 753d 499d 5d3b c315 21bd 39c8 ebbd
00000330: 2102 9a3c 4647 f1bd 5970 f03c 4cad c4bd
00000340: 64c9 80bd 803d 5f3d 4051 263d 392b edbd
00000350: 1671 febc 7912 b3bc 3058 35bd 0fe1 3cbc
00000360: ca0e 81bc 716c 623c d89b 7dbd 4005 dbbd
00000370: 18ef 74bd f5b5 533c 2722 c0bd b71d 6abd
00000380: bbeb 74bc 9bd1 4bbd 8cf4 a0bd 0efb d5bd
00000390: 234b da3b 20f0 e2bc ef00 6e3d 7042 7d3d
000003a0: af5b f53c bae3 62bd 9e7e 4b3d 9641 9ebb
000003b0: d8ed d0bd 83eb 78bd 1ea1 523d 6d61 373d
000003c0: 38c6 46bd 7672 6a3d 4803 bdbc 719d c7bc
000003d0: 8e70 b3bd 7544 d5bc 12e7 72bd b507 8dbc
000003e0: e6c0 02bd d0e8 8a3d 5307 193d e3ab bbbd
000003f0: af29 57bd a2cf 85bc 71ed 493c 9ee6 42bc
